…
      "I0706 08:10:05.683939  6022 net.cpp:76] Creating Layer cifar\n",
      "I0706 08:10:05.683954  6022 net.cpp:334] cifar -> data\n",
      "I0706 08:10:05.683993  6022 net.cpp:334] cifar -> label\n",
      "I0706 08:10:05.684012  6022 net.cpp:105] Setting up cifar\n",
      "I0706 08:10:05.684108  6022 db.cpp:34] Opened lmdb examples/cifar10/cifar10_train_lmdb\n",
      "I0706 08:10:05.684165  6022 data_layer.cpp:67] output data size: 100,3,32,32\n",
      "I0706 08:10:05.684183  6022 data_transformer.cpp:22] Loading mean file from: examples/cifar10/mean.binaryproto\n",
      "I0706 08:10:05.685178  6022 net.cpp:112] Top shape: 100 3 32 32 (307200)\n",
      "I0706 08:10:05.685204  6022 net.cpp:112] Top shape: 100 1 1 1 (100)\n",
      "I0706 08:10:05.685215  6022 layer_factory.hpp:74] Creating layer conv1\n",
      "I0706 08:10:05.685235  6022 net.cpp:76] Creating Layer conv1\n",
      "I0706 08:10:05.685247  6022 net.cpp:372] conv1 <- data\n",
      "I0706 08:10:05.685266  6022 net.cpp:334] conv1 -> conv1\n",
      "I0706 08:10:05.685284  6022 net.cpp:105] Setting up conv1\n",
      "I0706 08:10:05.739744  6022 net.cpp:112] Top shape: 100 32 32 32 (3276800)\n",
      "I0706 08:10:05.739820  6022 layer_factory.hpp:74] Creating layer pool1\n",
      "I0706 08:10:05.739848  6022 net.cpp:76] Creating Layer pool1\n",
      "I0706 08:10:05.739864  6022 net.cpp:372] pool1 <- conv1\n",
      "I0706 08:10:05.739878  6022 net.cpp:334] pool1 -> pool1\n",
      "I0706 08:10:05.739894  6022 net.cpp:105] Setting up pool1\n",
      "I0706 08:10:05.740053  6022 net.cpp:112] Top shape: 100 32 16 16 (819200)\n",
      "I0706 08:10:05.740072  6022 layer_factory.hpp:74] Creating layer relu1\n",
      "I0706 08:10:05.740084  6022 net.cpp:76] Creating Layer relu1\n",
      "I0706 08:10:05.740093  6022 net.cpp:372] relu1 <- pool1\n",
      "I0706 08:10:05.740103  6022 net.cpp:323] relu1 -> pool1 (in-place)\n",
      "I0706 08:10:05.740115  6022 net.cpp:105] Setting up relu1\n",
      "I0706 08:10:05.740167  6022 net.cpp:112] Top shape: 100 32 16 16 (819200)\n",
      "I0706 08:10:05.740180  6022 layer_factory.hpp:74] Creating layer conv2\n",
      "I0706 08:10:05.740196  6022 net.cpp:76] Creating Layer conv2\n",
      "I0706 08:10:05.740206  6022 net.cpp:372] conv2 <- pool1\n",
      "I0706 08:10:05.740216  6022 net.cpp:334] conv2 -> conv2\n",
      "I0706 08:10:05.740231  6022 net.cpp:105] Setting up conv2\n",
      "I0706 08:10:05.741406  6022 net.cpp:112] Top shape: 100 32 16 16 (819200)\n",
      "I0706 08:10:05.741439  6022 layer_factory.hpp:74] Creating layer relu2\n",
      "I0706 08:10:05.741452  6022 net.cpp:76] Creating Layer relu2\n",
      "I0706 08:10:05.741462  6022 net.cpp:372] relu2 <- conv2\n",
      "I0706 08:10:05.741473  6022 net.cpp:323] relu2 -> conv2 (in-place)\n",
      "I0706 08:10:05.741484  6022 net.cpp:105] Setting up relu2\n",
      "I0706 08:10:05.741530  6022 net.cpp:112] Top shape: 100 32 16 16 (819200)\n",
      "I0706 08:10:05.741541  6022 layer_factory.hpp:74] Creating layer pool2\n",
      "I0706 08:10:05.741554  6022 net.cpp:76] Creating Layer pool2\n",
      "I0706 08:10:05.741561  6022 net.cpp:372] pool2 <- conv2\n",
      "I0706 08:10:05.741572  6022 net.cpp:334] pool2 -> pool2\n",
      "I0706 08:10:05.741583  6022 net.cpp:105] Setting up pool2\n",
      "I0706 08:10:05.741706  6022 net.cpp:112] Top shape: 100 32 8 8 (204800)\n",
      "I0706 08:10:05.741724  6022 layer_factory.hpp:74] Creating layer conv3\n",
      "I0706 08:10:05.741736  6022 net.cpp:76] Creating Layer conv3\n",
      "I0706 08:10:05.741745  6022 net.cpp:372] conv3 <- pool2\n",
      "I0706 08:10:05.741757  6022 net.cpp:334] conv3 -> conv3\n",
      "I0706 08:10:05.741770  6022 net.cpp:105] Setting up conv3\n",
      "I0706 08:10:05.743801  6022 net.cpp:112] Top shape: 100 64 8 8 (409600)\n",
      "I0706 08:10:05.743834  6022 layer_factory.hpp:74] Creating layer relu3\n",
      "I0706 08:10:05.743849  6022 net.cpp:76] Creating Layer relu3\n",
      "I0706 08:10:05.743858  6022 net.cpp:372] relu3 <- conv3\n",
      "I0706 08:10:05.743868  6022 net.cpp:323] relu3 -> conv3 (in-place)\n",
      "I0706 08:10:05.743880  6022 net.cpp:105] Setting up relu3\n",
      "I0706 08:10:05.743927  6022 net.cpp:112] Top shape: 100 64 8 8 (409600)\n",
      "I0706 08:10:05.743939  6022 layer_factory.hpp:74] Creating layer pool3\n",
      "I0706 08:10:05.743950  6022 net.cpp:76] Creating Layer pool3\n",
      "I0706 08:10:05.743959  6022 net.cpp:372] pool3 <- conv3\n",
      "I0706 08:10:05.743969  6022 net.cpp:334] pool3 -> pool3\n",
      "I0706 08:10:05.743980  6022 net.cpp:105] Setting up pool3\n",
      "I0706 08:10:05.744036  6022 net.cpp:112] Top shape: 100 64 4 4 (102400)\n",
      "I0706 08:10:05.744048  6022 layer_factory.hpp:74] Creating layer ip1\n",
      "I0706 08:10:05.744068  6022 net.cpp:76] Creating Layer ip1\n",
      "I0706 08:10:05.744078  6022 net.cpp:372] ip1 <- pool3\n",
      "I0706 08:10:05.744092  6022 net.cpp:334] ip1 -> ip1\n",
      "I0706 08:10:05.744109  6022 net.cpp:105] Setting up ip1\n",
      "I0706 08:10:05.746326  6022 net.cpp:112] Top shape: 100 64 1 1 (6400)\n",
      "I0706 08:10:05.746357  6022 layer_factory.hpp:74] Creating layer ip2\n",
      "I0706 08:10:05.746373  6022 net.cpp:76] Creating Layer ip2\n",
      "I0706 08:10:05.746382  6022 net.cpp:372] ip2 <- ip1\n",
      "I0706 08:10:05.746424  6022 net.cpp:334] ip2 -> ip2\n",
      "I0706 08:10:05.746438  6022 net.cpp:105] Setting up ip2\n",
      "I0706 08:10:05.746474  6022 net.cpp:112] Top shape: 100 10 1 1 (1000)\n",
      "I0706 08:10:05.746490  6022 layer_factory.hpp:74] Creating layer loss\n",
      "I0706 08:10:05.746505  6022 net.cpp:76] Creating Layer loss\n",
      "I0706 08:10:05.746515  6022 net.cpp:372] loss <- ip2\n",
      "I0706 08:10:05.746525  6022 net.cpp:372] loss <- label\n",
      "I0706 08:10:05.746536  6022 net.cpp:334] loss -> loss\n",
      "I0706 08:10:05.746551  6022 net.cpp:105] Setting up loss\n",
      "I0706 08:10:05.746567  6022 layer_factory.hpp:74] Creating layer loss\n",
      "I0706 08:10:05.746647  6022 net.cpp:112] Top shape: 1 1 1 1 (1)\n",
      "I0706 08:10:05.746660  6022 net.cpp:118]     with loss weight 1\n",
      "I0706 08:10:05.746690  6022 net.cpp:163] loss needs backward computation.\n",
      "I0706 08:10:05.746698  6022 net.cpp:163] ip2 needs backward computation.\n",
      "I0706 08:10:05.746706  6022 net.cpp:163] ip1 needs backward computation.\n",
      "I0706 08:10:05.746714  6022 net.cpp:163] pool3 needs backward computation.\n",
…
      "I0706 08:10:05.748075  6022 net.cpp:76] Creating Layer cifar\n",
      "I0706 08:10:05.748085  6022 net.cpp:334] cifar -> data\n",
      "I0706 08:10:05.748098  6022 net.cpp:334] cifar -> label\n",
      "I0706 08:10:05.748111  6022 net.cpp:105] Setting up cifar\n",
      "I0706 08:10:05.748159  6022 db.cpp:34] Opened lmdb examples/cifar10/cifar10_test_lmdb\n",
      "I0706 08:10:05.748191  6022 data_layer.cpp:67] output data size: 100,3,32,32\n",
      "I0706 08:10:05.748205  6022 data_transformer.cpp:22] Loading mean file from: examples/cifar10/mean.binaryproto\n",
      "I0706 08:10:05.748658  6022 net.cpp:112] Top shape: 100 3 32 32 (307200)\n",
      "I0706 08:10:05.748680  6022 net.cpp:112] Top shape: 100 1 1 1 (100)\n",
      "I0706 08:10:05.748692  6022 layer_factory.hpp:74] Creating layer label_cifar_1_split\n",
      "I0706 08:10:05.748709  6022 net.cpp:76] Creating Layer label_cifar_1_split\n",
      "I0706 08:10:05.748718  6022 net.cpp:372] label_cifar_1_split <- label\n",
      "I0706 08:10:05.748729  6022 net.cpp:334] label_cifar_1_split -> label_cifar_1_split_0\n",
      "I0706 08:10:05.748742  6022 net.cpp:334] label_cifar_1_split -> label_cifar_1_split_1\n",
      "I0706 08:10:05.748754  6022 net.cpp:105] Setting up label_cifar_1_split\n",
      "I0706 08:10:05.748766  6022 net.cpp:112] Top shape: 100 1 1 1 (100)\n",
      "I0706 08:10:05.748775  6022 net.cpp:112] Top shape: 100 1 1 1 (100)\n",
      "I0706 08:10:05.748783  6022 layer_factory.hpp:74] Creating layer conv1\n",
      "I0706 08:10:05.748797  6022 net.cpp:76] Creating Layer conv1\n",
      "I0706 08:10:05.748806  6022 net.cpp:372] conv1 <- data\n",
      "I0706 08:10:05.748819  6022 net.cpp:334] conv1 -> conv1\n",
      "I0706 08:10:05.748832  6022 net.cpp:105] Setting up conv1\n",
      "I0706 08:10:05.749169  6022 net.cpp:112] Top shape: 100 32 32 32 (3276800)\n",
      "I0706 08:10:05.749202  6022 layer_factory.hpp:74] Creating layer pool1\n",
      "I0706 08:10:05.749215  6022 net.cpp:76] Creating Layer pool1\n",
      "I0706 08:10:05.749224  6022 net.cpp:372] pool1 <- conv1\n",
      "I0706 08:10:05.749234  6022 net.cpp:334] pool1 -> pool1\n",
      "I0706 08:10:05.749246  6022 net.cpp:105] Setting up pool1\n",
      "I0706 08:10:05.749392  6022 net.cpp:112] Top shape: 100 32 16 16 (819200)\n",
      "I0706 08:10:05.749409  6022 layer_factory.hpp:74] Creating layer relu1\n",
      "I0706 08:10:05.749423  6022 net.cpp:76] Creating Layer relu1\n",
      "I0706 08:10:05.749433  6022 net.cpp:372] relu1 <- pool1\n",
      "I0706 08:10:05.749444  6022 net.cpp:323] relu1 -> pool1 (in-place)\n",
      "I0706 08:10:05.749454  6022 net.cpp:105] Setting up relu1\n",
      "I0706 08:10:05.749507  6022 net.cpp:112] Top shape: 100 32 16 16 (819200)\n",
      "I0706 08:10:05.749519  6022 layer_factory.hpp:74] Creating layer conv2\n",
      "I0706 08:10:05.749531  6022 net.cpp:76] Creating Layer conv2\n",
      "I0706 08:10:05.749541  6022 net.cpp:372] conv2 <- pool1\n",
      "I0706 08:10:05.749550  6022 net.cpp:334] conv2 -> conv2\n",
      "I0706 08:10:05.749563  6022 net.cpp:105] Setting up conv2\n",
      "I0706 08:10:05.750672  6022 net.cpp:112] Top shape: 100 32 16 16 (819200)\n",
      "I0706 08:10:05.750705  6022 layer_factory.hpp:74] Creating layer relu2\n",
      "I0706 08:10:05.750718  6022 net.cpp:76] Creating Layer relu2\n",
      "I0706 08:10:05.750741  6022 net.cpp:372] relu2 <- conv2\n",
      "I0706 08:10:05.750756  6022 net.cpp:323] relu2 -> conv2 (in-place)\n",
      "I0706 08:10:05.750766  6022 net.cpp:105] Setting up relu2\n",
      "I0706 08:10:05.750823  6022 net.cpp:112] Top shape: 100 32 16 16 (819200)\n",
      "I0706 08:10:05.750835  6022 layer_factory.hpp:74] Creating layer pool2\n",
      "I0706 08:10:05.750849  6022 net.cpp:76] Creating Layer pool2\n",
      "I0706 08:10:05.750857  6022 net.cpp:372] pool2 <- conv2\n",
      "I0706 08:10:05.750869  6022 net.cpp:334] pool2 -> pool2\n",
      "I0706 08:10:05.750880  6022 net.cpp:105] Setting up pool2\n",
      "I0706 08:10:05.750932  6022 net.cpp:112] Top shape: 100 32 8 8 (204800)\n",
      "I0706 08:10:05.750944  6022 layer_factory.hpp:74] Creating layer conv3\n",
      "I0706 08:10:05.750959  6022 net.cpp:76] Creating Layer conv3\n",
      "I0706 08:10:05.750968  6022 net.cpp:372] conv3 <- pool2\n",
      "I0706 08:10:05.750979  6022 net.cpp:334] conv3 -> conv3\n",
      "I0706 08:10:05.750993  6022 net.cpp:105] Setting up conv3\n",
      "I0706 08:10:05.752970  6022 net.cpp:112] Top shape: 100 64 8 8 (409600)\n",
      "I0706 08:10:05.753005  6022 layer_factory.hpp:74] Creating layer relu3\n",
      "I0706 08:10:05.753018  6022 net.cpp:76] Creating Layer relu3\n",
      "I0706 08:10:05.753027  6022 net.cpp:372] relu3 <- conv3\n",
      "I0706 08:10:05.753037  6022 net.cpp:323] relu3 -> conv3 (in-place)\n",
      "I0706 08:10:05.753048  6022 net.cpp:105] Setting up relu3\n",
      "I0706 08:10:05.753180  6022 net.cpp:112] Top shape: 100 64 8 8 (409600)\n",
      "I0706 08:10:05.753196  6022 layer_factory.hpp:74] Creating layer pool3\n",
      "I0706 08:10:05.753211  6022 net.cpp:76] Creating Layer pool3\n",
      "I0706 08:10:05.753219  6022 net.cpp:372] pool3 <- conv3\n",
      "I0706 08:10:05.753231  6022 net.cpp:334] pool3 -> pool3\n",
      "I0706 08:10:05.753243  6022 net.cpp:105] Setting up pool3\n",
      "I0706 08:10:05.753298  6022 net.cpp:112] Top shape: 100 64 4 4 (102400)\n",
      "I0706 08:10:05.753309  6022 layer_factory.hpp:74] Creating layer ip1\n",
      "I0706 08:10:05.753322  6022 net.cpp:76] Creating Layer ip1\n",
      "I0706 08:10:05.753331  6022 net.cpp:372] ip1 <- pool3\n",
      "I0706 08:10:05.753342  6022 net.cpp:334] ip1 -> ip1\n",
      "I0706 08:10:05.753355  6022 net.cpp:105] Setting up ip1\n",
      "I0706 08:10:05.755528  6022 net.cpp:112] Top shape: 100 64 1 1 (6400)\n",
      "I0706 08:10:05.755555  6022 layer_factory.hpp:74] Creating layer ip2\n",
      "I0706 08:10:05.755568  6022 net.cpp:76] Creating Layer ip2\n",
      "I0706 08:10:05.755578  6022 net.cpp:372] ip2 <- ip1\n",
      "I0706 08:10:05.755590  6022 net.cpp:334] ip2 -> ip2\n",
      "I0706 08:10:05.755602  6022 net.cpp:105] Setting up ip2\n",
      "I0706 08:10:05.755640  6022 net.cpp:112] Top shape: 100 10 1 1 (1000)\n",
      "I0706 08:10:05.755658  6022 layer_factory.hpp:74] Creating layer ip2_ip2_0_split\n",
      "I0706 08:10:05.755669  6022 net.cpp:76] Creating Layer ip2_ip2_0_split\n",
      "I0706 08:10:05.755678  6022 net.cpp:372] ip2_ip2_0_split <- ip2\n",
      "I0706 08:10:05.755690  6022 net.cpp:334] ip2_ip2_0_split -> ip2_ip2_0_split_0\n",
      "I0706 08:10:05.755702  6022 net.cpp:334] ip2_ip2_0_split -> ip2_ip2_0_split_1\n",
      "I0706 08:10:05.755713  6022 net.cpp:105] Setting up ip2_ip2_0_split\n",
      "I0706 08:10:05.755724  6022 net.cpp:112] Top shape: 100 10 1 1 (1000)\n",
      "I0706 08:10:05.755733  6022 net.cpp:112] Top shape: 100 10 1 1 (1000)\n",
      "I0706 08:10:05.755741  6022 layer_factory.hpp:74] Creating layer accuracy\n",
      "I0706 08:10:05.755754  6022 net.cpp:76] Creating Layer accuracy\n",
      "I0706 08:10:05.755764  6022 net.cpp:372] accuracy <- ip2_ip2_0_split_0\n",
      "I0706 08:10:05.755774  6022 net.cpp:372] accuracy <- label_cifar_1_split_0\n",
      "I0706 08:10:05.755784  6022 net.cpp:334] accuracy -> accuracy\n",
      "I0706 08:10:05.755795  6022 net.cpp:105] Setting up accuracy\n",
      "I0706 08:10:05.755807  6022 net.cpp:112] Top shape: 1 1 1 1 (1)\n",
      "I0706 08:10:05.755816  6022 layer_factory.hpp:74] Creating layer loss\n",
      "I0706 08:10:05.755831  6022 net.cpp:76] Creating Layer loss\n",
      "I0706 08:10:05.755841  6022 net.cpp:372] loss <- ip2_ip2_0_split_1\n",
      "I0706 08:10:05.755849  6022 net.cpp:372] loss <- label_cifar_1_split_1\n",
      "I0706 08:10:05.755859  6022 net.cpp:334] loss -> loss\n",
      "I0706 08:10:05.755870  6022 net.cpp:105] Setting up loss\n",
      "I0706 08:10:05.755880  6022 layer_factory.hpp:74] Creating layer loss\n",
      "I0706 08:10:05.755949  6022 net.cpp:112] Top shape: 1 1 1 1 (1)\n",
      "I0706 08:10:05.755961  6022 net.cpp:118]     with loss weight 1\n",
      "I0706 08:10:05.755988  6022 net.cpp:163] loss needs backward computation.\n",
      "I0706 08:10:05.755997  6022 net.cpp:165] accuracy does not need backward computation.\n",
      "I0706 08:10:05.756006  6022 net.cpp:163] ip2_ip2_0_split needs backward computation.\n",
      "I0706 08:10:05.756014  6022 net.cpp:163] ip2 needs backward computation.\n",
…
